…
        "model = BERTClassifier(bertmodel,  dr_rate=0.5).to(device)"
      ]
    },
    {
      "cell_type": "code",
      "source": [
        "print(model)"
      ],
      "metadata": {
        "id": "QotSHT2lkcKs",
        "outputId": "813c140a-db37-4446-eea9-e1efbf123c5a",
        "colab": {
          "base_uri": "https://localhost:8080/"
        }
      },
      "execution_count": 50,
      "outputs": [
        {
          "output_type": "stream",
          "name": "stdout",
          "text": [
            "BERTClassifier(\n",
            "  (bert): BertModel(\n",
            "    (embeddings): BertEmbeddings(\n",
            "      (word_embeddings): Embedding(8002, 768, padding_idx=1)\n",
            "      (position_embeddings): Embedding(512, 768)\n",
            "      (token_type_embeddings): Embedding(2, 768)\n",
            "      (LayerNorm): LayerNorm((768,), eps=1e-12, elementwise_affine=True)\n",
            "      (dropout): Dropout(p=0.1, inplace=False)\n",
            "    )\n",
            "    (encoder): BertEncoder(\n",
            "      (layer): ModuleList(\n",
            "        (0-11): 12 x BertLayer(\n",
            "          (attention): BertAttention(\n",
            "            (self): BertSelfAttention(\n",
            "              (query): Linear(in_features=768, out_features=768, bias=True)\n",
            "              (key): Linear(in_features=768, out_features=768, bias=True)\n",
            "              (value): Linear(in_features=768, out_features=768, bias=True)\n",
            "              (dropout): Dropout(p=0.1, inplace=False)\n",
            "            )\n",
            "            (output): BertSelfOutput(\n",
            "              (dense): Linear(in_features=768, out_features=768, bias=True)\n",
            "              (LayerNorm): LayerNorm((768,), eps=1e-12, elementwise_affine=True)\n",
            "              (dropout): Dropout(p=0.1, inplace=False)\n",
            "            )\n",
            "          )\n",
            "          (intermediate): BertIntermediate(\n",
            "            (dense): Linear(in_features=768, out_features=3072, bias=True)\n",
            "            (intermediate_act_fn): GELUActivation()\n",
            "          )\n",
            "          (output): BertOutput(\n",
            "            (dense): Linear(in_features=3072, out_features=768, bias=True)\n",
            "            (LayerNorm): LayerNorm((768,), eps=1e-12, elementwise_affine=True)\n",
            "            (dropout): Dropout(p=0.1, inplace=False)\n",
            "          )\n",
            "        )\n",
            "      )\n",
            "    )\n",
            "    (pooler): BertPooler(\n",
            "      (dense): Linear(in_features=768, out_features=768, bias=True)\n",
            "      (activation): Tanh()\n",
            "    )\n",
            "  )\n",
            "  (classifier): Linear(in_features=768, out_features=8, bias=True)\n",
            "  (dropout): Dropout(p=0.5, inplace=False)\n",
            ")\n"
          ]
        }
      ]
    },
    {
      "cell_type": "code",
      "source": [
        "# optimizer, schedule\n",
        "no_decay = ['bias', 'LayerNorm.weight']\n",
        "optimizer_grouped_parameters = [\n",
        "    {'params': [p for n, p in model.named_parameters() if not any(nd in n for nd in no_decay)], 'weight_decay': 0.01},\n",
…
